LTSF.pth (torch, 46300 bytes, 6 tensors)

Linear.weight f4 [10, 360]
0	0xbd5549c7	-0.052072313
1	0x3dac4f32	0.08413543
2	0xba897843	-0.0010488111
3	0x3a3b1a0a	0.0007137364
4	0x3d0e163c	0.034689173
5	0x3d73517e	0.05940389
6	0x3da616a9	0.08109791
7	0x3bfea2b8	0.0077708624
8	0x3c2b09b2	0.010439323
9	0x3d389e5d	0.045072902
10	0x3c0ff00c	0.008785259
11	0x3cfdd918	0.030987307
12	0x3da0b4d3	0.078469895
13	0x3d16689b	0.036720853
14	0x3d34fa25	0.04418387
15	0x3c813baf	0.01577553
16	0xbc309c30	-0.0107794255
17	0x3ca7214f	0.020401625
18	0xbb999fea	-0.0046882527
19	0xbb62d59d	-0.0034612187
20	0x3cb39818	0.02192311
21	0x3c13271c	0.008981492
22	0x3a27e951	0.0006405311
23	0xbc53c693	-0.012925762
24	0x3cc68eb7	0.024237974
25	0xbd59c76e	-0.053168707
26	0xbc8034d7	-0.015650196
27	0xbd55160b	-0.052022975
28	0x3d0613ca	0.032733716
29	0x3c3653e8	0.011128403
30	0xbd51c5e1	-0.051214103
31	0x3d45f4f8	0.048329324
32	0x3c827773	0.015926098
33	0xbd160047	-0.03662136
34	0xbca2f387	-0.019891514
35	0x3b3cb424	0.0028793896
36	0xbbb27a54	-0.0054467116
37	0x3c8a7a6f	0.016904084
38	0x3d81e97e	0.06343363
39	0x3c09378e	0.008375062
40	0x3d052fd8	0.03251633
41	0xbc7d7473	-0.015469658
42	0x3bfdb699	0.0077427146
43	0x3d6f617f	0.05844259
44	0x3c98b110	0.018639117
45	0xbd295af5	-0.04134651
46	0x3c77db71	0.0151280025
47	0x3c8a03a2	0.016847435
48	0xbcf2e8c9	-0.029652016
49	0xbc5a9ee4	-0.013343547
50	0xbdb2ee00	-0.08736801
51	0x3b9eb1e0	0.0048429817
52	0x3d94869f	0.072522394
53	0xbcf62eaf	-0.030051557
54	0x3d842a6c	0.06453404
55	0x3d9532df	0.072850935
56	0xbbaa01e6	-0.0051882146
57	0xbbb6cd16	-0.0055786474
58	0x3d0a65f2	0.03378863
59	0x3c3f7dc1	0.011687697
60	0x3b20c1de	0.0024529616
61	0xbd874f1c	-0.06606886
62	0xbced8b08	-0.02899696
63	0x3c1e08d4	0.0096456595
64	0xbceee858	-0.029163525
65	0xbc3fbd9e	-0.011702923
66	0xbccd3e7f	-0.025054215
67	0x3c47d698	0.012197159
68	0x3b9dfbe4	0.0048212875
69	0xbd38578a	-0.04500536
70	0x3caccc20	0.021093428
71	0x3d18f6b1	0.03734464
72	0xbb12d391	-0.0022403935
73	0x3d5969bb	0.053079348
74	0x3be2380a	0.006903653
75	0xbd83b778	-0.06431478
76	0x3c0e50a4	0.008686218
77	0xbcf82912	-0.030293021
78	0xbce789ce	-0.028263953
79	0xbc91c941	-0.01779616
80	0xbc226d1d	-0.00991371
81	0x3d3bc76b	0.045844477
82	0x3c912a77	0.017720444
83	0xbc504abd	-0.0127131315
84	0xbcfe4dad	-0.031042898
85	0xbd4cc9f9	-0.049997304
86	0xbd833044	-0.0640569
87	0x3ca0fdf3	0.019652342
88	0xbd3c70d5	-0.046006043
89	0x3c14a15a	0.009071672
90	0xbc2e8e7b	-0.010654087
91	0xbbe9043e	-0.0071111014
92	0x3c958ab5	0.018254617
93	0x3b804577	0.003914531
94	0x3ce3566a	0.027751166
95	0xbbdb38f7	-0.0066901403
96	0xbd4080e6	-0.046997927
97	0xbd2be4d8	-0.04196629
98	0x3da89f5d	0.08233521
99	0x3c9b9d9a	0.018996049
100	0x3d2f5357	0.04280409
101	0xbd31c191	-0.04339749
102	0xbccdbb57	-0.025113745
103	0xbd5b137e	-0.053485386
104	0x3d465351	0.0484193
105	0x3d01e4c5	0.031712312
106	0xbcafe775	-0.021472672
107	0x3c7c3c7a	0.015395278
108	0x3d6d2a47	0.057901647
109	0xbd89d023	-0.06729152
110	0x3c6645ba	0.01405471
111	0x3d813d15	0.063104786
112	0x3b0e6a17	0.0021730715
113	0x3d76d8c1	0.060265306
114	0x3a89da80	0.0010517389
115	0x3d2f5778	0.042808026
116	0xbd0b2543	-0.033971082
117	0x3d1f284e	0.038856797
118	0xbcf738fc	-0.03017854
119	0x3d0b4467	0.03400078
120	0xbc8a3328	-0.016870096
121	0x3b57239c	0.0032827621
122	0x3d52dc0e	0.05147939
123	0xbcbe7194	-0.023247518
124	0x3cf8d647	0.030375613
125	0xbc433d4d	-0.011916471
126	0x3c25c543	0.010117832
127	0xbd42117c	-0.047379956
128	0xbd1e8e04	-0.038709655
129	0x3b9d74d9	0.004805189
130	0xbc4a2cec	-0.012339812
131	0x3d45da2a	0.04830376
132	0x3c65ddcc	0.014029931
133	0x3ad04683	0.0015890155
134	0xbd234b89	-0.039866958
135	0x3c4d0b71	0.012514935
136	0xbc6b1acc	-0.014349651
137	0x39ea8675	0.00044732136
138	0x3ca5645d	0.020189459
139	0x3cb24687	0.021762146
140	0x3c6fed3d	0.014643964
141	0xbd59343b	-0.053028326
142	0xbd443d22	-0.047909863
143	0xbcb7be1a	-0.022429515
144	0x3d557329	0.05211178
145	0xbcc97ce2	-0.024595682
146	0x3ce54d3d	0.027990932
147	0xbd463201	-0.04838753
148	0x3c61c5c1	0.013780058
149	0xbd52e64c	-0.05148916
150	0x3cb440a1	0.022003474
151	0x3c46d2eb	0.012135248
152	0x3bb100aa	0.0054016905
153	0x3bda89fa	0.00666928
154	0x3d12e126	0.03585925
155	0xbb3bd664	-0.0028661722
156	0x3d45b25e	0.048265807
157	0x3cae671b	0.021289399
158	0xbd17a5ba	-0.037023284
159	0xbd8250a0	-0.06363034
160	0x3cd79367	0.026315404
161	0xbccb8911	-0.024845632
162	0x3d28fd4f	0.0412572
163	0x3d4d8682	0.050177105
164	0x3a94b768	0.0011346163
165	0xbce54498	-0.02798681
166	0xbd102479	-0.035191033
167	0xbcc59c1c	-0.02412229
168	0xbd4ae201	-0.04953194
169	0xbd656941	-0.05600858
170	0x3a153b78	0.00056927605
171	0xbbaa5193	-0.0051977127
172	0x3cc60c47	0.024175776
173	0xbce18711	-0.027530225
174	0xbcb45806	-0.02201463
175	0xbbc50eaf	-0.0060137133
176	0xbc6a9750	-0.014318302
177	0xbbbd2358	-0.0057720356
178	0x3d84bff7	0.06481927
179	0x3cf72d3f	0.030172942
180	0xbc9f0203	-0.019410139
181	0x3cc66abd	0.024220819
182	0xbd0d8525	-0.034550805
183	0xbd20ad4f	-0.03922778
184	0x3b0f2142	0.0021839892
185	0x3d32c68c	0.04364638
186	0x3cfbbbfa	0.030729283
187	0x3d638489	0.055546317
188	0x3c0dc5f3	0.008653152
189	0x3ca8d916	0.020611327
190	0x3caa0bcd	0.02075758
191	0xbcdc1b0b	-0.026868364
192	0xbccc826c	-0.024964534
193	0x3cf9f3c8	0.030511752
194	0xbd22d383	-0.039752495
195	0x3da42fe4	0.08016947
196	0xbb2ee1ad	-0.0026684806
197	0xbca3265a	-0.019915748
198	0x3ca3463f	0.019930957
199	0x3c42a1f9	0.011879438
200	0xbd05bb90	-0.032649577
201	0xbb8a0333	-0.004211807
202	0xbca618bd	-0.020275468
203	0xbd84b0cf	-0.06479036
204	0xbc7d68b3	-0.015466857
205	0x3c9625cc	0.01832857
206	0xbd36f0c2	-0.0446632
207	0x3d03e9af	0.03220528
208	0xbcc36c75	-0.023855427
209	0x3cdd4668	0.027011111
210	0x3c0061ce	0.007835818
211	0x3c839de4	0.016066499
212	0xbc8ccc6c	-0.01718732
213	0xbcaabaaa	-0.020840961
214	0x3c57a3a7	0.013161576
215	0xbcba983c	-0.02277767
216	0xbc11cbf2	-0.008898722
217	0xbba0a9df	-0.0049030627
218	0xbd07ea7f	-0.033182617
219	0xb8ee0ba3	-0.00011350892
220	0x3bf4cfa8	0.0074710436
221	0xbcf5c5f4	-0.030001618
222	0x3c82a73c	0.015948884
223	0xbbce5cdb	-0.0062976903
224	0x3c4bdf86	0.012443429
225	0xbb4f8dea	-0.003167028
226	0x3b155b39	0.0022789969
227	0x3cf6c17f	0.030121563
228	0x3d809089	0.06277568
229	0x3c8aa2f5	0.016923407
230	0xbc9d391e	-0.019192275
231	0xbd883338	-0.06650394
232	0x3ba95295	0.0051673152
233	0xbcdc05ea	-0.026858289
234	0x3ce9aa7f	0.028523682
235	0xbcd9c4f3	-0.02658317
236	0xbc9bdc61	-0.019025983
237	0x3c6c170f	0.0144097945
238	0x3ccd06f4	0.02502773
239	0x3ceedeb6	0.029158931
240	0x3d261a68	0.040552527
241	0x3c95e284	0.018296488
242	0x3cbc91c3	0.023018723
243	0x3ca1255b	0.019671133
244	0x3d5c2fca	0.053756513
245	0x3d583d06	0.05279257
246	0xbceed096	-0.029152196
247	0xbd1ea61b	-0.03873263
248	0x3d24f3d4	0.040271595
249	0x3c86e1b4	0.016465046
250	0xbd8a40bf	-0.067506306
251	0x3c8b0f60	0.016975105
252	0xbd300220	-0.042970777
253	0xbc248747	-0.010042018
254	0x3cdf8e07	0.027289404
255	0x3b90e1dc	0.004421456

Linear.bias f4 [10]
0	0x3d59df9f	0.053191777
1	0x3d5095c4	0.050924078
2	0x3d77b9c6	0.0604799
3	0x3d715fea	0.05892936
4	0x3d68141b	0.0566598
5	0x3d9bd4bc	0.07608935
6	0x3d8f2731	0.06989897
7	0x3d938c3e	0.072044834
8	0x3d8b49a1	0.06801153
9	0x3da97317	0.08273905

exp_avg f4 [10, 360]
0	0x37208c08	9.569347e-06
1	0xb9b5c45c	-0.0003466931
2	0xb930099a	-0.00016788245
3	0x394c2d21	0.00019471768
4	0xb9df31c9	-0.00042570967
5	0xb971e524	-0.00023068913
6	0xba029746	-0.0004981648
7	0xb9a779b4	-0.00031943398
8	0xb900452e	-0.00012232803
9	0x3666a438	3.4368259e-06
10	0x38dad970	0.00010435551
11	0xb8eef312	-0.00011394
12	0x3906fd78	0.0001287366
13	0xb98b83b1	-0.00026610264
14	0xb8ca2ce4	-9.640472e-05
15	0x37ef1204	2.849941e-05
16	0x380a4d41	3.2973712e-05
17	0x38633ed7	5.417954e-05
18	0xb8bf6ed8	-9.128236e-05
19	0x3928c974	0.00016096776
20	0xb99ef11d	-0.00030315752
21	0xb8472a7e	-4.748487e-05
22	0xb8cfc592	-9.9073295e-05
23	0xb81aa528	-3.6870275e-05
24	0xb91d7064	-0.00015014556
25	0xb993551f	-0.00028101445
26	0xb967d20e	-0.00022108128
27	0xb9e13bab	-0.000429598
28	0xb90de6a8	-0.00013532734
29	0x39096386	0.00013102414
30	0xb8ed63b8	-0.00011319615
31	0xb89829b2	-7.255691e-05
32	0xb96bb555	-0.00022478898
33	0xb7477918	-1.1889519e-05
34	0xb9da98f2	-0.00041694153
35	0x39402bdf	0.0001832689
36	0xb9dd4454	-0.00042203313
37	0xb9db2522	-0.000417986
38	0xb9528c06	-0.00020079323
39	0xb9405823	-0.0001834338
40	0xb862cfe7	-5.4076223e-05
41	0xb9bee3bf	-0.00036409308
42	0xb9ac3af8	-0.00032850332
43	0xb9adf1b8	-0.00033177226
44	0xb7ca79be	-2.4136967e-05
45	0x37b9ea6c	2.216288e-05
46	0x3893eb41	7.053326e-05
47	0xb8c0000a	-9.155281e-05
48	0xb9c2ac5e	-0.00037130987
49	0xb982f3aa	-0.00024977076
50	0xb959821a	-0.000207432
51	0xb93e5bda	-0.0001815403
52	0xb8ed72df	-0.00011322437
53	0xb94e3dea	-0.00019668756
54	0xb99bd753	-0.00029724333
55	0xba1ffec2	-0.00061033305
56	0xb8dd6395	-0.0001055665
57	0xb9e3bfa3	-0.00043439594
58	0xb9fe85c0	-0.00048546307
59	0xb9518e9c	-0.0001998492
60	0xb96fa25c	-0.000228533
61	0xb9546662	-0.00020256036
62	0xb97ba5c4	-0.00023998978
63	0xb990e43e	-0.00027635874
64	0xb8f45118	-0.000116499315
65	0xb9312b72	-0.0001689622
66	0x3826b3a4	3.9744788e-05
67	0x38420083	4.625368e-05
68	0xb948189b	-0.00019082653
69	0xb8a17714	-7.699258e-05
70	0xba013dca	-0.0004930167
71	0xb8ae2ef0	-8.305709e-05
72	0xb9185d80	-0.00014530681
73	0xb84ee7b8	-4.9330032e-05
74	0xb91f58d2	-0.0001519651
75	0xb926b93c	-0.00015899999
76	0xb8ab516e	-8.169083e-05
77	0x38cea4b8	9.853527e-05
78	0xb85f67f2	-5.326415e-05
79	0xb8988036	-7.271806e-05
80	0x38315aed	4.228477e-05
81	0x37de518f	2.6502441e-05
82	0x36add990	5.1811294e-06
83	0xb9c50071	-0.00037575097
84	0xb9a28a52	-0.00031002105
85	0xb93295fa	-0.00017031273
86	0xb91f2e10	-0.00015180581
87	0x38422d5c	4.629545e-05
88	0xb871dcbd	-5.7664456e-05
89	0xb9ad7b09	-0.000330888
90	0xb9200491	-0.0001526049
91	0xb89947f2	-7.3090094e-05
92	0xb78d53e5	-1.6847576e-05
93	0xb987037a	-0.00025751797
94	0xb7247244	-9.801766e-06
95	0xb8da1f1e	-0.00010400846
96	0x380fdfca	3.4302277e-05
97	0xb93b8adc	-0.00017885439
98	0xb6e1beb2	-6.7277224e-06
99	0xb924ceec	-0.00015717343
100	0xb75c234c	-1.312124e-05
101	0x39949752	0.00028341502
102	0xb9841144	-0.00025189866
103	0xb7cb6a9a	-2.4249126e-05
104	0xba07e6a8	-0.0005184212
105	0xb976d533	-0.00023539811
106	0xb8952be7	-7.113051e-05
107	0xb8af4ea1	-8.359296e-05
108	0xb8e80bb3	-0.00011064801
109	0x390955b4	0.00013097265
110	0x3814f018	3.5509554e-05
111	0xb962be9d	-0.00021624049
112	0x391e8eab	0.00015121202
113	0xb8c2424c	-9.2629896e-05
114	0x38db2ec2	0.00010451443
115	0xb998258c	-0.00029019674
116	0xb7107c2a	-8.611978e-06
117	0xb91b6276	-0.00014818631
118	0xb98276b7	-0.00024883982
119	0x39b43594	0.00034372194
120	0xb9087c0c	-0.00013016182
121	0x392beaa1	0.00016395237
122	0xb892e029	-7.0035756e-05
123	0x38b78b58	8.752075e-05
124	0xb9401fda	-0.00018322413
125	0xb90b2051	-0.00013268112
126	0xb85c4512	-5.2516414e-05
127	0xb9620978	-0.00021556567
128	0x39422427	0.0001851475
129	0x389fd5a0	7.6215016e-05
130	0x388c738e	6.697244e-05
131	0xb5f95a80	-1.8578285e-06
132	0x375640fc	1.2770524e-05
133	0xb956a08a	-0.00020468436
134	0xb9514da9	-0.00019960724
135	0x38dc2aed	0.00010498413
136	0xb8f10db1	-0.00011494326
137	0xb80d9b02	-3.3761382e-05
138	0x391a8872	0.00014737414
139	0xb97c3f73	-0.0002405623
140	0x3879be48	5.954344e-05
141	0x392c033f	0.00016404408
142	0x398a13f3	0.00026336274
143	0x36b7a298	5.4727534e-06
144	0x396cb4c3	0.00022574053
145	0xb98fbd06	-0.0002741592
146	0x37e6d4d0	2.7517235e-05
147	0xb82aadeb	-4.0693132e-05
148	0xb8a367f6	-7.79181e-05
149	0x3920eceb	0.00015347048
150	0x3768d9a0	1.3878947e-05
151	0x39a61ca6	0.00031683332
152	0xb9cea71f	-0.00039415897
153	0xb98ac35b	-0.00026466962
154	0xb900a12a	-0.0001226707
155	0xb8a8fa9c	-8.057544e-05
156	0xb99911be	-0.00029195653
157	0x364f9980	3.0934752e-06
158	0xb9cb7cd6	-0.00038812187
159	0xb8039a20	-3.1376374e-05
160	0xba00e49a	-0.0004916877
161	0x38787e80	5.924562e-05
162	0xb9da3952	-0.00041622907
163	0xb8dbafd1	-0.00010475482
164	0xb973295a	-0.0002318969
165	0xb9157a5c	-0.0001425533
166	0xb97e2f0d	-0.00024240855
167	0xb98d22b7	-0.0002691948
168	0xb93da945	-0.00018087502
169	0xb9c4b93e	-0.0003752205
170	0xb9964cc0	-0.00028667413
171	0xb9a7db02	-0.00032015896
172	0xb8b35289	-8.5507585e-05
173	0xb909bd08	-0.00013135758
174	0xb9eafc25	-0.0004481982
175	0xb99558e2	-0.00028485717
176	0xb99fa873	-0.00030452348
177	0xb90ed2c9	-0.00013620699
178	0xb958cfe1	-0.00020676806
179	0xb9e14d6d	-0.0004297303
180	0xb983d920	-0.00025148038
181	0xb9ce7a1a	-0.00039382355
182	0x38550c46	5.0794588e-05
183	0x379608d0	1.7885497e-05
184	0x38f2a8fa	0.000115709336
185	0xb63ece80	-2.8432405e-06
186	0xb856ff9c	-5.125963e-05
187	0xb9aa9525	-0.00032536048
188	0xb9876137	-0.00025821637
189	0xb9986a57	-0.0002907093
190	0xb97b6a02	-0.00023976716
191	0x38f34422	0.00011599834
192	0x39403a8d	0.00018332359
193	0x39487d1c	0.00019120093
194	0x38e86430	0.000110812834
195	0xb93abb7b	-0.00017808184
196	0x39b64758	0.000347669
197	0x38dc5b1d	0.00010507389
198	0x39e39731	0.0004340946
199	0x3970eef3	0.00022977199
200	0x37ee8850	2.8435286e-05
201	0xb7ac519d	-2.0542002e-05
202	0xb8f3bf74	-0.00011622804
203	0x39e9c061	0.00044584557
204	0xb98964e3	-0.00026205843
205	0x395f0653	0.00021269293
206	0xb88bf66d	-6.673937e-05
207	0xb9394e21	-0.0001767208
208	0xb84b2673	-4.843478e-05
209	0xb8a5c8b3	-7.905196e-05
210	0xb8483684	-4.7734487e-05
211	0xb8c00a7c	-9.157226e-05
212	0x39b67ad7	0.00034805268
213	0xb8214ecc	-3.8458777e-05
214	0xb78a1058	-1.6458493e-05
215	0x391c0599	0.00014879405
216	0xb9fbab0e	-0.00048001896
217	0x38fb9579	0.00011996454
218	0xb92e3800	-0.00016614795
219	0x394aa210	0.00019324594
220	0xb8f5539a	-0.000116980824
221	0x389f074f	7.583072e-05
222	0xb8e40a8b	-0.00010873851
223	0xb9bc507c	-0.0003591812
224	0xb899eceb	-7.339738e-05
225	0xb9ba0408	-0.00035479688
226	0x390afd7e	0.00013255139
227	0xb8a2d658	-7.7646866e-05
228	0x39a2cf28	0.0003105339
229	0xb906a48e	-0.00012840537
230	0xb9c9a6cb	-0.00038461978
231	0x381be5c3	3.7168862e-05
232	0xb99f5d0a	-0.00030396163
233	0xb86a5fe4	-5.5879253e-05
234	0xb9b09bf2	-0.00033685524
235	0xb98b6b9f	-0.0002659233
236	0xb977d21b	-0.00023634026
237	0xba4553da	-0.00075274485
238	0x38b8c891	8.811162e-05
239	0xb97f9c9f	-0.00024377041
240	0xb8a3cc97	-7.8105535e-05
241	0x3775bca0	1.4647056e-05
242	0xb9b0cfe8	-0.00033724238
243	0x38691abc	5.5576427e-05
244	0xb89dc222	-7.5225034e-05
245	0xb9867a65	-0.00025649663
246	0xb8342204	-4.2947024e-05
247	0x38edee07	0.00011345377
248	0xb87bbbe8	-6.0018065e-05
249	0x39dd4c4e	0.00042209256
250	0xb829c1de	-4.0473293e-05
251	0xb72b8bad	-1.0224915e-05
252	0x383fc753	4.5723584e-05
253	0xb93d80e6	-0.00018072463
254	0x38cd57a6	9.7914875e-05
255	0x394977a0	0.00019213418

exp_avg_sq f4 [10, 360]
0	0x36097a25	2.0485688e-06
1	0x36174c40	2.2545137e-06
2	0x36178a5f	2.2581296e-06
3	0x36136cdc	2.1968071e-06
4	0x360bdd14	2.0841298e-06
5	0x36088cdd	2.0347572e-06
6	0x361f9270	2.3778084e-06
7	0x36033612	1.9551994e-06
8	0x362512a6	2.459777e-06
9	0x36186d74	2.2713475e-06
10	0x3612ce31	2.1875715e-06
11	0x360d4a6d	2.1053959e-06
12	0x361ace79	2.3067971e-06
13	0x3620c365	2.3955592e-06
14	0x3613e13c	2.203581e-06
15	0x3627230d	2.4905341e-06
16	0x360c9d97	2.0953355e-06
17	0x36235658	2.4339151e-06
18	0x36108d5e	2.1539959e-06
19	0x3617a987	2.2599431e-06
20	0x3612404b	2.1793119e-06
21	0x3617a46d	2.2596462e-06
22	0x3619064e	2.2802446e-06
23	0x36314cbf	2.6419727e-06
24	0x361cca45	2.3363548e-06
25	0x3620c2d8	2.3955272e-06
26	0x360090b0	1.9157706e-06
27	0x36107cdd	2.1530352e-06
28	0x360d1ccf	2.1027406e-06
29	0x36191e05	2.281625e-06
30	0x35f7976d	1.8447005e-06
31	0x360e887c	2.1239093e-06
32	0x36047395	1.973681e-06
33	0x35f8785d	1.851247e-06
34	0x3614a96a	2.215233e-06
35	0x35e765bf	1.7240453e-06
36	0x3615e45a	2.2335648e-06
37	0x360ef09d	2.1299704e-06
38	0x35f76f8d	1.84354e-06
39	0x360a24ab	2.0584946e-06
40	0x35e2ac71	1.6888499e-06
41	0x360fd44b	2.1432231e-06
42	0x35fff1c1	1.906934e-06
43	0x360869d9	2.032719e-06
44	0x35ea5a0b	1.7460565e-06
45	0x360f5fe5	2.1364478e-06
46	0x35d9637d	1.6196715e-06
47	0x3603f9bb	1.9665883e-06
48	0x3617081f	2.250548e-06
49	0x35ed8b38	1.7698394e-06
50	0x35faa779	1.8675192e-06
51	0x36047c89	1.9742022e-06
52	0x3608ec36	2.0403072e-06
53	0x35e38e00	1.6954145e-06
54	0x35cb33e7	1.5139784e-06
55	0x3601a36c	1.9317622e-06
56	0x35d9e6e0	1.6234953e-06
57	0x360545c8	1.9859162e-06
58	0x3600514a	1.9120803e-06
59	0x361a680a	2.3008347e-06
60	0x35fd4bfc	1.8872083e-06
61	0x36164641	2.2392635e-06
62	0x360a5b96	2.0616912e-06
63	0x36032f56	1.9548074e-06
64	0x36165a7d	2.2404413e-06
65	0x3608483b	2.0307623e-06
66	0x35fe6e3d	1.8956558e-06
67	0x35fa7048	1.865913e-06
68	0x35db695d	1.6347436e-06
69	0x36058a44	1.9899026e-06
70	0x35d5bd07	1.5924751e-06
71	0x360aedfd	2.070213e-06
72	0x35eef0c9	1.780246e-06
73	0x35e77fbf	1.724802e-06
74	0x35fa81f1	1.8664269e-06
75	0x35fa135b	1.8632085e-06
76	0x361da98d	2.3493515e-06
77	0x3608b1d7	2.0369096e-06
78	0x361f5c4e	2.3746575e-06
79	0x360819bb	2.0280556e-06
80	0x361b93e7	2.318289e-06
81	0x35ff8631	1.9038035e-06
82	0x36050220	1.9819781e-06
83	0x36042b48	1.9694726e-06
84	0x360a14c2	2.0575685e-06
85	0x36162a56	2.2376385e-06
86	0x36076aa8	2.017865e-06
87	0x360ba098	2.0806092e-06
88	0x3607b235	2.0220298e-06
89	0x35f1ec20	1.8024621e-06
90	0x35f895c4	1.8521027e-06
91	0x35e9c630	1.7417533e-06
92	0x3610a1fb	2.1551957e-06
93	0x35f2ab8c	1.8080332e-06
94	0x35ed503f	1.7681231e-06
95	0x35f689e4	1.836856e-06
96	0x35f127e0	1.7967504e-06
97	0x35dca498	1.643918e-06
98	0x35e2ad21	1.6888699e-06
99	0x35d15ce3	1.5598747e-06
100	0x3606d4f5	2.0091513e-06
101	0x35f3231f	1.8115132e-06
102	0x35f936ea	1.8567928e-06
103	0x35e3d04d	1.6973441e-06
104	0x35ff43a8	1.9018671e-06
105	0x35bfffc8	1.4305051e-06
106	0x360b5d86	2.0767052e-06
107	0x35c7d341	1.4888138e-06
108	0x36138864	2.1984097e-06
109	0x35c9a5a0	1.502387e-06
110	0x35d853a1	1.6117593e-06
111	0x35e865ae	1.731494e-06
112	0x35bb2577	1.3943489e-06
113	0x35f7cdf2	1.8462872e-06
114	0x35dfa0fc	1.6661647e-06
115	0x35e26659	1.6868099e-06
116	0x35b7bbfd	1.3689274e-06
117	0x35caf152	1.5120406e-06
118	0x35ec719a	1.7616433e-06
119	0x35bc9f69	1.4053486e-06
120	0x360144da	1.9262575e-06
121	0x35d318a9	1.5727902e-06
122	0x35e49f7f	1.7033743e-06
123	0x3605dab1	1.994584e-06
124	0x35ec8bc9	1.7624053e-06
125	0x35fa38ed	1.8643019e-06
126	0x35d9813e	1.6205374e-06
127	0x361106ba	2.16106e-06
128	0x35e455b9	1.7012272e-06
129	0x36005083	1.912035e-06
130	0x35fe0670	1.8926348e-06
131	0x35f22686	1.8041617e-06
132	0x3602e2fa	1.9503627e-06
133	0x35de31d7	1.6554794e-06
134	0x360353c9	1.956929e-06
135	0x35e9b6b1	1.7413023e-06
136	0x36108a0c	2.1538026e-06
137	0x35f07a33	1.7916958e-06
138	0x35dc05fe	1.6393021e-06
139	0x3606aa7b	2.0066789e-06
140	0x36074fbe	2.0162984e-06
141	0x360fb748	2.1415344e-06
142	0x3615f71c	2.2346567e-06
143	0x360290a5	1.9455704e-06
144	0x361046b8	2.1498836e-06
145	0x360cabb6	2.0961575e-06
146	0x36123ca9	2.1791004e-06
147	0x35fd6518	1.8879391e-06
148	0x36021af5	1.93872e-06
149	0x35ec52e0	1.760749e-06
150	0x35ee7aa8	1.776808e-06
151	0x360f8019	2.1383223e-06
152	0x35c7d06f	1.4887318e-06
153	0x360fffdd	2.1457593e-06
154	0x35e1f58d	1.6835271e-06
155	0x3602e357	1.9503839e-06
156	0x35e5a594	1.7110019e-06
157	0x360faa11	2.1407652e-06
158	0x3600e33b	1.9205752e-06
159	0x35fa720a	1.8659641e-06
160	0x35fd4792	1.8870799e-06
161	0x35f0478f	1.790222e-06
162	0x35d88a1e	1.6133451e-06
163	0x35f9a52b	1.8600016e-06
164	0x3608ff13	2.0414052e-06
165	0x35faf156	1.869669e-06
166	0x35d47b3c	1.5831097e-06
167	0x35e78037	1.7248157e-06
168	0x35dfa491	1.666269e-06
169	0x35ed6bb1	1.7689218e-06
170	0x35f81d46	1.848596e-06
171	0x36009c5d	1.9164502e-06
172	0x35f988e3	1.8591785e-06
173	0x360a7450	2.0631305e-06
174	0x35fb0bd4	1.87044e-06
175	0x35d0b294	1.5549181e-06
176	0x35edcbd2	1.7717196e-06
177	0x35ac1325	1.282057e-06
178	0x35d644ed	1.5964303e-06
179	0x35dcf11c	1.6461449e-06
180	0x35ec6bde	1.7614764e-06
181	0x3602db62	1.9499207e-06
182	0x35d02c2c	1.5510063e-06
183	0x36097556	2.048289e-06
184	0x35d70686	1.6020647e-06
185	0x35f74b8b	1.842492e-06
186	0x35ddeb11	1.6534196e-06
187	0x35d34d7d	1.5743277e-06
188	0x35e3ac5b	1.696298e-06
189	0x35e992ac	1.740254e-06
190	0x35f8c725	1.8535399e-06
191	0x35e5414a	1.7080831e-06
192	0x360118ba	1.923689e-06
193	0x35e636be	1.7152267e-06
194	0x35d6f4a1	1.6015439e-06
195	0x35fa0f08	1.8630826e-06
196	0x35ef4990	1.7828297e-06
197	0x35fb2675	1.871215e-06
198	0x36002b2e	1.909862e-06
199	0x3615fac6	2.23487e-06
200	0x35fef8a7	1.8996842e-06
201	0x36034398	1.9559866e-06
202	0x36008533	1.9151018e-06
203	0x3608938f	2.035147e-06
204	0x35f75d7a	1.8430139e-06
205	0x35dcd755	1.6453947e-06
206	0x360298ae	1.946038e-06
207	0x360c74f3	2.09297e-06
208	0x35de9c90	1.6585855e-06
209	0x360037ed	1.910604e-06
210	0x35cd888e	1.5313433e-06
211	0x35f17a97	1.7991578e-06
212	0x3603d9f2	1.9647382e-06
213	0x35e07b69	1.6725218e-06
214	0x35d7d1e5	1.6079836e-06
215	0x35b98442	1.3822066e-06
216	0x3600be5d	1.9184292e-06
217	0x35b0b342	1.3165193e-06
218	0x35e50596	1.7063455e-06
219	0x35e722b3	1.722094e-06
220	0x360af0da	2.0703797e-06
221	0x35c1f5a9	1.4451117e-06
222	0x35fc4c5c	1.8797687e-06
223	0x35d554e5	1.5894444e-06
224	0x35f3e880	1.8172577e-06
225	0x35e30b46	1.6916099e-06
226	0x35e6ffd2	1.7210789e-06
227	0x35cad804	1.5113042e-06
228	0x35d0db68	1.5561063e-06
229	0x35c6c0e3	1.4808287e-06
230	0x35deb6ab	1.6593452e-06
231	0x35bc5f75	1.4034873e-06
232	0x35d49685	1.5839038e-06
233	0x35bc5743	1.4032488e-06
234	0x35d14c39	1.5593897e-06
235	0x35bb5c99	1.3959535e-06
236	0x35ce84b3	1.5386817e-06
237	0x35d750c2	1.6042252e-06
238	0x35af720e	1.307171e-06
239	0x35be9cee	1.4201776e-06
240	0x35c37ffb	1.4565879e-06
241	0x35d4f6a7	1.5867016e-06
242	0x35de0292	1.6541037e-06
243	0x35d1b0d1	1.5623174e-06
244	0x35d3f6fb	1.5792606e-06
245	0x35c58834	1.4717284e-06
246	0x35ed6ebf	1.7690107e-06
247	0x35d97213	1.620096e-06
248	0x35d9b8c8	1.6221538e-06
249	0x35fb4fc9	1.8724178e-06
250	0x35c2105f	1.4458891e-06
251	0x3615d3f3	2.23261e-06
252	0x35e3feab	1.6986936e-06
253	0x35caf288	1.5120759e-06
254	0x35b7e8da	1.3702331e-06
255	0x35e16cff	1.6795528e-06

exp_avg f4 [10]
0	0x3ad4ecd8	0.0016244901
1	0x3ac46c70	0.001498593
2	0x3b02cb6b	0.0019957672
3	0x3b363037	0.0027799734
4	0x3b4bb8be	0.0031085457
5	0x3b0ebf3a	0.002178146
6	0x3b0626a4	0.002046981
7	0x3afd7a3a	0.0019338795
8	0x3b1eaab1	0.0024210627
9	0x3ab36666	0.0013687133

exp_avg_sq f4 [10]
0	0x38930903	7.011185e-05
1	0x38912dff	6.922706e-05
2	0x3897d2f8	7.239537e-05
3	0x38b757a9	8.742448e-05
4	0x38ad9fc3	8.279041e-05
5	0x3896da1a	7.193182e-05
6	0x389686f2	7.177693e-05
7	0x38ab507a	8.168905e-05
8	0x38a41474	7.823939e-05
9	0x3892eeb7	7.0062866e-05
