Timeseries_LSTM_data-pulmuone_daily_.pth (torch, 5226 bytes, 5 tensors)

lstm.weight_ih_l0 f4 [40, 2]
000000 3c 02 e8 bd 5c 7e 46 bc aa e8 7b bf 8a f8 41 3e
       -0.11328551 -0.012115087 -0.9840189 0.18942466
000010 92 c8 9e bf ce d5 c8 3d e7 64 ab 3e a6 2d 87 3e
       -1.2404959 0.09806405 0.3347542 0.26402014
000020 51 74 4e bf ef 87 46 bf b6 cc 01 3e db 16 36 3f
       -0.80646235 -0.7755117 0.12675747 0.71128625
000030 cd 90 be bf 99 83 bc be b9 ab fb be 4a 87 f9 be
       -1.488794 -0.3681915 -0.4915445 -0.4873603
000040 42 0a ba 3f e0 83 98 3f 26 2a fe bf e2 71 16 bf
       1.453438 1.1915245 -1.9856613 -0.5876752
000050 b2 69 95 bf d6 2d bc bf df 90 01 3f 3e fd ad 3f
       -1.1672881 -1.4701488 0.5061168 1.3592908
000060 ab d3 2a 3e 44 3a 9e bf b6 e6 8f 3f f7 22 db bf
       0.16682307 -1.2361531 1.1242282 -1.7120045
000070 c1 e6 48 3f 07 eb 2d 3f fd db 19 bf 77 5c 72 bf
       0.784771 0.6793675 -0.601013 -0.9467234
000080 91 d5 92 bf e4 5e 4d be db 27 98 bf f7 0b 89 be
       -1.1471425 -0.20055729 -1.1887163 -0.2676694
000090 f9 48 80 be a4 76 4c 3a 9e f8 1a bf 93 bf 8d bf
       -0.25055674 0.0007799661 -0.6053561 -1.1074089
0000a0 d0 b7 95 bc b8 2c 41 3d 36 30 63 3e 4c 89 af 3d
       -0.018276125 0.047161788 0.2218636 0.08571109
0000b0 d8 9d 75 3d 7c 14 9f bd 5b d2 97 3e a8 49 9d 3d
       0.059964985 -0.07767579 0.29652676 0.076800644
0000c0 a8 67 ea bd 94 ed d4 3d 1d 38 8c 3e ee 76 c6 bd
       -0.11445552 0.10396877 0.2738656 -0.09690653
0000d0 a0 b9 0f be 50 47 99 3d 7e 14 bd bd 79 97 a1 be
       -0.14035654 0.07484305 -0.09232424 -0.31560877
0000e0 c4 57 81 be 4b e6 7b be be 79 3c 3e 87 62 38 be
       -0.25262272 -0.24599569 0.18405816 -0.18006335
0000f0 52 81 70 be be 02 3d be 15 fd 95 3e e0 0c 70 bc
       -0.23486832 -0.18458077 0.2929465 -0.014651507
000100 05 e6 9d 3e 40 3d 24 3e f8 30 91 3d ff 10 86 be
       0.30839553 0.1603899 0.07089418 -0.26184842
000110 10 b1 c4 3d 5e d7 3d 3e 88 81 20 bd d4 65 e4 3d
       0.096040845 0.18539187 -0.03918603 0.11152235
000120 c0 ef d3 3d f4 fe 90 bd 10 50 b7 bc 02 dc 06 3e
       0.10348463 -0.070798784 -0.022377044 0.13169864
000130 4a d6 70 3e b8 b5 7e bd f0 79 fe bc b2 b6 28 3e
       0.23519245 -0.06218502 -0.031064004 0.16475943

lstm.weight_hh_l0 f4 [40, 10]
000000 39 95 e9 3e 99 bd be 3e de 29 f3 be a4 3a 09 be
       0.4562166 0.37254027 -0.4749288 -0.13401276
000010 06 ec ae 3c 46 f9 8e 3e 18 53 76 be 2f dd d2 3e
       0.02135278 0.27924556 -0.24055135 0.41184375
000020 25 87 28 bf 88 d9 c8 be d8 8e 3b 3e 17 c7 39 3e
       -0.65831214 -0.39228463 0.1831621 0.18142353
000030 74 ce 34 bf a4 80 5e be 90 71 61 be eb 62 a9 3e
       -0.7062752 -0.2172876 -0.22015977 0.3308328
000040 9b 63 fa be c0 c1 bb 3e 1e 46 ea be d7 39 8c be
       -0.48904118 0.36671257 -0.4575662 -0.27387878
000050 b2 48 29 3f a7 ed 69 3f da 11 ff 3f 01 5d 0a bf
       0.6612655 0.91378254 1.9927323 -0.5404816
000060 ab f6 86 be c0 35 41 3f b5 67 7b be 96 88 05 3f
       -0.26360068 0.7547264 -0.2455128 0.5216154
000070 a5 96 31 40 21 8b ec bd 08 f6 b7 3e 5f 11 2c 3f
       2.7748196 -0.11549974 0.35929894 0.67214006
000080 41 ca 3f bd e7 2d f1 be 37 23 0f be ec a1 32 3f
       -0.046823744 -0.47105333 -0.13978277 0.69778323
000090 c6 d3 dc be 40 30 bb 3e cc c6 56 bf 6b 76 75 bd
       -0.4313032 0.3656025 -0.8389709 -0.059927385
0000a0 66 33 73 3e cc 5d 54 3e cc e5 0f 3f 36 62 a9 be
       0.23750076 0.20738906 0.5621002 -0.33082741
0000b0 70 5b c6 bd 93 97 0c be 21 c0 4b be a7 dd 45 3e
       -0.09685409 -0.13729696 -0.1989751 0.19322835
0000c0 ef b1 70 3e 44 ed 55 be 11 11 e2 3e 97 c8 ec 3e
       0.23505376 -0.20891291 0.44153646 0.46246788
0000d0 9e 1d a4 be bd fa 2c bf 6e fe 09 3e aa 2b e5 3e
       -0.32053846 -0.67570096 0.13475963 0.44759876
0000e0 9c 6c 0b bf 14 12 4e 3e 9d a7 77 bf a4 3a 11 bf
       -0.544626 0.20124084 -0.9674013 -0.56730103
0000f0 7a 73 34 be a1 61 f3 be 97 c4 a2 3e bc 37 11 3b
       -0.17622176 -0.47535422 0.3179061 0.0022158464
000100 37 b4 80 3d 7f a3 d9 bd e8 0f b2 be 6f d4 48 be
       0.06284373 -0.106268875 -0.3477776 -0.19612287
000110 3d cb c7 3e 1f 1b a0 3d 9e d8 77 3e 52 f6 45 3f
       0.39022246 0.07817673 0.24203727 0.7732898
000120 7f fc 9a 3e fc 61 05 bf 04 f1 c1 be d6 89 1d 3f
       0.30270764 -0.5210264 -0.37879193 0.61538446
000130 1d 43 5f bf ec c4 01 3f 38 e9 d5 bb 70 8c 1e be
       -0.8721178 0.50691104 -0.006528046 -0.1548326
000140 88 59 96 3f 2a eb 01 40 ab 4e f1 3f 86 b4 b8 bf
       1.1746073 2.0299783 1.8852133 -1.4430091
000150 fc f7 74 bf 7f 01 d7 3f 52 a7 44 bf 8b c3 43 3f
       -0.95690894 1.6797332 -0.7681781 0.7647025
000160 f3 0a 31 40 23 26 1e bf 80 0e 20 3f 06 24 97 3e
       2.7662933 -0.6177694 0.62522125 0.2951967
000170 14 90 bf be cb 5b 5e be c0 7b a1 be 6f 54 00 3f
       -0.3741461 -0.21714704 -0.31539726 0.50128835
000180 cf 74 50 bf 41 8f b3 3e 61 56 4e be 83 3d db 3e
       -0.81428236 0.35070232 -0.20150138 0.42820367
000190 1d 6a a9 3e a9 99 38 3e aa b1 80 be 46 3a 5f bd
       0.3308877 0.18027367 -0.25135547 -0.054498933
0001a0 2c ba 35 be 7d 7f a0 be 01 b0 5d 3e 7d 87 af be
       -0.177468 -0.31347266 0.21649171 -0.34283057
0001b0 50 aa 1a be be 5a a3 be ec 82 48 bd b2 5e 10 3e
       -0.15104032 -0.31905168 -0.04895298 0.14098623
0001c0 74 b8 e5 be 87 cb 86 bd 73 44 fe 3e 52 eb ee be
       -0.4486729 -0.065817885 0.49661598 -0.4666391
0001d0 aa 30 c5 3e 9a d4 cc bd e3 7f fd be 72 fd 37 be
       0.3851369 -0.10001488 -0.49511632 -0.17967775
0001e0 a8 bb 1c bd 81 97 59 be 72 20 23 bf e5 61 c0 3c
       -0.0382649 -0.212492 -0.6372138 0.02348418
0001f0 db 03 98 be d6 5d 8f 3e 28 ed 39 bf e4 d6 14 3f
       -0.2969044 0.2800128 -0.72627497 0.581404
000200 6a 1e 78 bf 6d af cf 3e 45 67 ba bd f1 f6 d3 bd
       -0.9692141 0.40563527 -0.09101728 -0.10349835
000210 3c 0e ea 3e fd 11 b1 3d c1 dc 69 bd c7 23 48 be
       0.45713985 0.08646009 -0.057095293 -0.19544898
000220 07 3b c6 bc ca fa 85 3e 61 23 52 3d 48 32 83 3e
       -0.024198068 0.261679 0.05130327 0.256243
000230 d4 89 cc 3e a7 93 ea 3d 8a a7 a5 3d e5 57 f0 bd
       0.39948905 0.11453944 0.08088596 -0.117355146
000240 a6 6e a2 be b2 a2 2c 3e d2 70 b4 be 8d 97 88 3e
       -0.31725043 0.16858938 -0.35242325 0.26678124
000250 e8 57 6b 3c 33 68 ae 3d ab 48 22 3d 6b a8 55 be
       0.01436422 0.08515968 0.039620083 -0.20865028
000260 c9 1b 2b 3e 3c ab f6 bd 89 6e 69 bb fe fc b8 bc
       0.16709818 -0.12044379 -0.0035618863 -0.022581574
000270 94 49 09 3e 72 cb cf 3d 9b 88 2c 3e 41 28 bb bd
       0.13406974 0.10146226 0.16848986 -0.09138537
000280 d3 ea 0c bf 38 b6 20 bf 83 f6 76 3e 69 af a8 3e
       -0.55045813 -0.62778044 0.24117474 0.32946327
000290 29 a9 43 3e 2c 74 46 bf 6b 3c b9 bd 4f 10 f3 bd
       0.19107498 -0.77521014 -0.09044727 -0.11868345
0002a0 21 79 0e 3f f3 d4 7a 3e 2d fb 22 3c 9e 18 ba 3e
       0.5565358 0.24495296 0.00994758 0.36346906
0002b0 0a bd bf 3e 60 2b 91 3e 81 ac ce bb c0 bf 0e be
       0.37448913 0.28353405 -0.006307185 -0.13940334
0002c0 f5 7d bd bd f8 fb b1 bd 57 bf ae 3e 4e 6d 4a 3c
       -0.0925254 -0.08690637 0.34130356 0.012355162
0002d0 60 20 94 bd 7d dc a1 be 64 cb 37 bf 1d 87 a2 3a
       -0.072327375 -0.31613532 -0.71794724 0.0012399886
0002e0 b6 8c a8 be d7 3d 4c be 29 ba b8 be 15 97 93 3e
       -0.32919854 -0.19945465 -0.3607953 0.28826204
0002f0 ed 7e 90 bf 4c b1 a6 3e 3c 4b 61 3e 5c 8a 85 3d
       -1.1288735 0.32557142 0.22001356 0.065205306
000300 3e 32 57 be db d8 b3 be 01 c7 8f be d1 2d c2 3e
       -0.2101526 -0.35126385 -0.28081515 0.3792558
000310 f4 9a 3f be b6 63 17 3e 21 16 20 3d c6 51 35 3e
       -0.18711454 0.1478413 0.039083604 0.17706975
000320 65 cb d9 be 79 c0 a3 be e7 93 35 bf f7 d7 b1 3c
       -0.4253799 -0.31982782 -0.70928806 0.021709425
000330 71 a2 c1 3e d8 f0 c2 bc 03 70 f8 3e 7e 3a 81 be
       0.37819245 -0.023796484 0.48522958 -0.25239938
000340 12 56 33 bf 45 9f e6 3c 01 40 09 be eb 3f 86 be
       -0.7005321 0.028152118 -0.13403322 -0.2622064
000350 c5 02 7c bf c6 54 99 be 3e 3c 09 3e 0b 87 38 3d
       -0.98441726 -0.2994749 0.13401887 0.045050662
000360 04 19 b3 3e f3 b9 25 bf 1d f0 31 bf f5 91 76 3e
       0.34980023 -0.6473686 -0.6950701 0.24079116
000370 21 65 07 3f bd 2b bf 3e ad 12 b0 bf 06 fe 8a bf
       0.52888685 0.37338057 -1.3755699 -1.0858772
000380 37 34 3c 3e 1e 71 49 3f 41 4d f7 be 18 72 1d 3f
       0.18379293 0.7868823 -0.48301128 0.6150222
000390 af b2 f8 bf 96 c0 49 3e 20 c1 7a 3e 6c 2c 70 3e
       -1.942953 0.19702372 0.24487734 0.23454446
0003a0 89 ed 18 3f e4 76 a8 be 50 3f 0e be e8 53 0e 3f
       0.5973745 -0.32903206 -0.1389134 0.5559678
0003b0 8a bb bb be 50 55 3a 3f 40 41 45 3e b8 72 17 bf
       -0.36666518 0.72786427 0.19263172 -0.5915942
0003c0 b2 96 11 be 7d 18 8a 3d bf 1d 1a 3f 16 f5 e0 3e
       -0.14217642 0.06742952 0.6020164 0.43936986
0003d0 38 95 3d be 06 4e 56 be f4 a8 72 3e ad 44 05 be
       -0.18513954 -0.20928201 0.23697263 -0.13014479
0003e0 3f c0 ee 3e 02 59 34 be ea 75 c7 be c6 c5 29 be
       0.46631047 -0.17612079 -0.3895715 -0.16579351
0003f0 f1 3a 61 bd c4 28 85 be 71 ad e3 3c 68 c2 03 3e
       -0.05498785 -0.26007664 0.027792664 0.12867129

lstm.bias_ih_l0 f4 [40]
000000 fe bf 3d bf 3c 74 10 bf 8e 18 d9 bd ac 5e d7 be
       -0.7412108 -0.5642736 -0.106003866 -0.42064416
000010 c9 7a 49 bf 89 ac f0 be 1d a1 a8 be 6e d7 08 bf
       -0.7870298 -0.47006634 -0.3293542 -0.5345372
000020 4e 53 8e be 69 f8 4f bf 71 d1 87 3e db e4 03 3f
       -0.2779793 -0.8123842 0.2652698 0.5152108
000030 42 46 a5 bf 2c ad 40 be d4 05 1e bf 9b 15 99 be
       -1.2912066 -0.1881606 -0.61727643 -0.29899296
000040 ae eb 91 3e a7 79 57 3f 00 13 e7 bf d2 49 02 bf
       0.28500122 0.8417 -1.8052673 -0.5089389
000050 92 de ba 3e 15 39 8f 3d 6f c1 a6 bd cf fd 87 be
       0.36497933 0.069933094 -0.08142363 -0.26560828
000060 5a aa 82 3d 0e 75 9a 3e 8e d2 39 be 7c 3b e3 3d
       0.06380148 0.3016743 -0.18146726 0.1109533
000070 74 bd b7 be bc 4a e8 bd 04 30 d4 be aa b2 f2 be
       -0.3588673 -0.113423795 -0.41442883 -0.47401935
000080 6d 1f 74 be 29 6d 23 bf 0b 9c 5b bf 70 51 aa be
       -0.23840113 -0.6383844 -0.8578498 -0.33265257
000090 b9 7f c6 be 23 bf 81 be 7e e7 4b 3e 54 a8 1d bf
       -0.3876932 -0.25341138 0.19912526 -0.61584973

lstm.bias_hh_l0 f4 [40]
000000 f2 74 41 bf b7 48 ba be 4f 05 0d bf ca c1 d2 be
       -0.7556907 -0.36383602 -0.55086225 -0.41163474
000010 b3 71 93 bf f9 c7 a5 be 57 1d e0 be 25 13 80 be
       -1.1519073 -0.3237913 -0.43772385 -0.25014606
000020 c7 bb a7 be e5 59 4f bf e0 40 aa 3d ab ca ca 3e
       -0.3276045 -0.80996543 0.08313155 0.39607748
000030 57 6c ae bf e2 8d 05 bf f2 39 3d bf 6f 71 cf bd
       -1.3626813 -0.5216962 -0.7391654 -0.101290576
000040 20 75 99 3e cf a2 36 3f 67 49 03 c0 8e 30 0a bf
       0.29972172 0.71342176 -2.0513551 -0.5398034
000050 55 d0 5a 3a 6d ad c5 3e 88 40 46 be 67 d2 31 be
       0.0008347084 0.38608876 -0.19360554 -0.17365418
000060 a3 df 44 bd 4d ec d4 3d 12 24 04 be 51 d4 f0 3e
       -0.04806484 0.10396633 -0.12904385 0.47036985
000070 7c a7 73 3d 3a 75 98 bd 49 a0 77 bf a1 8d 69 bf
       0.059485897 -0.07444234 -0.9672895 -0.91231734
000080 3a 8d a0 be b5 e0 05 bf 42 17 8b bf 7f 96 1d bf
       -0.31357747 -0.52296 -1.0866473 -0.61557764
000090 51 7d 55 bf e1 c1 c1 be c8 1f be bd fe b4 1f bf
       -0.8339434 -0.3784323 -0.092834055 -0.6238555

fc.weight f4 [1, 10]
000000 10 e6 18 be ad ab 4d be 8d 55 62 be 70 2b 33 bc
       -0.14931512 -0.2008502 -0.22102948 -0.010935649
000010 25 85 32 3e 9e e0 7c 3b a1 5d af 3e 38 78 02 bf
       0.17433603 0.003858603 0.3425112 -0.5096469
000020 b5 0f 7a be 98 cf 48 3d
       -0.24420054 0.0490261
